…
Batch #421
Batch #422
Batch #423
There are 6777 images
Model: "generator"
__________________________________________________________________________________________________
Layer (type)                    Output Shape         Param #     Connected to                     
==================================================================================================
input_2 (InputLayer)            [(None, 24, 24, 3)]  0                                            
__________________________________________________________________________________________________
conv2d (Conv2D)                 (None, 24, 24, 64)   15616       input_2[0][0]                    
__________________________________________________________________________________________________
p_re_lu (PReLU)                 (None, 24, 24, 64)   36864       conv2d[0][0]                     
__________________________________________________________________________________________________
conv2d_1 (Conv2D)               (None, 24, 24, 64)   36928       p_re_lu[0][0]                    
__________________________________________________________________________________________________
batch_normalization (BatchNorma (None, 24, 24, 64)   256         conv2d_1[0][0]                   
__________________________________________________________________________________________________
p_re_lu_1 (PReLU)               (None, 24, 24, 64)   36864       batch_normalization[0][0]        
__________________________________________________________________________________________________
conv2d_2 (Conv2D)               (None, 24, 24, 64)   36928       p_re_lu_1[0][0]                  
__________________________________________________________________________________________________
batch_normalization_1 (BatchNor (None, 24, 24, 64)   256         conv2d_2[0][0]                   
__________________________________________________________________________________________________
add (Add)                       (None, 24, 24, 64)   0           p_re_lu[0][0]                    
                                                                 batch_normalization_1[0][0]      
__________________________________________________________________________________________________
conv2d_3 (Conv2D)               (None, 24, 24, 64)   36928       add[0][0]                        
__________________________________________________________________________________________________
batch_normalization_2 (BatchNor (None, 24, 24, 64)   256         conv2d_3[0][0]                   
__________________________________________________________________________________________________
p_re_lu_2 (PReLU)               (None, 24, 24, 64)   36864       batch_normalization_2[0][0]      
__________________________________________________________________________________________________
conv2d_4 (Conv2D)               (None, 24, 24, 64)   36928       p_re_lu_2[0][0]                  
__________________________________________________________________________________________________
batch_normalization_3 (BatchNor (None, 24, 24, 64)   256         conv2d_4[0][0]                   
__________________________________________________________________________________________________
add_1 (Add)                     (None, 24, 24, 64)   0           add[0][0]                        
                                                                 batch_normalization_3[0][0]      
__________________________________________________________________________________________________
conv2d_5 (Conv2D)               (None, 24, 24, 64)   36928       add_1[0][0]                      Using TensorFlow backend.
WARNING:tensorflow:Entity <function VGG_static.<locals>.<lambda> at 0x7f1259c81268> could not be transformed and will be executed as-is. Please report this to the AutoGraph team. When filing the bug, set the verbosity to 10 (on Linux, `export AUTOGRAPH_VERBOSITY=10`) and attach the full output. Cause: Failed to parse source code of <function VGG_static.<locals>.<lambda> at 0x7f1259c81268>, which Python reported as:
        lambda x: x * 255 - np.array([123.68, 116.779, 103.939], dtype=np.float32).reshape([1, 1, 1, 3]), name='scale'

If this is a lambda function, the error may be avoided by creating the lambda in a standalone statement.

__________________________________________________________________________________________________
batch_normalization_4 (BatchNor (None, 24, 24, 64)   256         conv2d_5[0][0]                   
__________________________________________________________________________________________________
p_re_lu_3 (PReLU)               (None, 24, 24, 64)   36864       batch_normalization_4[0][0]      
__________________________________________________________________________________________________
conv2d_6 (Conv2D)               (None, 24, 24, 64)   36928       p_re_lu_3[0][0]                  
__________________________________________________________________________________________________
batch_normalization_5 (BatchNor (None, 24, 24, 64)   256         conv2d_6[0][0]                   
__________________________________________________________________________________________________
add_2 (Add)                     (None, 24, 24, 64)   0           add_1[0][0]                      
                                                                 batch_normalization_5[0][0]      
__________________________________________________________________________________________________
conv2d_7 (Conv2D)               (None, 24, 24, 64)   36928       add_2[0][0]                      
__________________________________________________________________________________________________
batch_normalization_6 (BatchNor (None, 24, 24, 64)   256         conv2d_7[0][0]                   
__________________________________________________________________________________________________
p_re_lu_4 (PReLU)               (None, 24, 24, 64)   36864       batch_normalization_6[0][0]      
__________________________________________________________________________________________________
conv2d_8 (Conv2D)               (None, 24, 24, 64)   36928       p_re_lu_4[0][0]                  
__________________________________________________________________________________________________
batch_normalization_7 (BatchNor (None, 24, 24, 64)   256         conv2d_8[0][0]                   
__________________________________________________________________________________________________
add_3 (Add)                     (None, 24, 24, 64)   0           add_2[0][0]                      
                                                                 batch_normalization_7[0][0]      
__________________________________________________________________________________________________
conv2d_10 (Conv2D)              (None, 24, 24, 256)  147712      add_3[0][0]                      
__________________________________________________________________________________________________
subpixel_0 (Lambda)             (None, 48, 48, 64)   0           conv2d_10[0][0]                  
__________________________________________________________________________________________________
p_re_lu_5 (PReLU)               (None, 48, 48, 64)   147456      subpixel_0[0][0]                 
__________________________________________________________________________________________________
conv2d_11 (Conv2D)              (None, 48, 48, 256)  147712      p_re_lu_5[0][0]                  
__________________________________________________________________________________________________
subpixel_1 (Lambda)             (None, 96, 96, 64)   0           conv2d_11[0][0]                  
__________________________________________________________________________________________________
p_re_lu_6 (PReLU)               (None, 96, 96, 64)   589824      subpixel_1[0][0]                 
__________________________________________________________________________________________________
conv2d_12 (Conv2D)              (None, 96, 96, 3)    15555       p_re_lu_6[0][0]                  
==================================================================================================
Total params: 1,545,667
Trainable params: 1,544,643
Non-trainable params: 1,024
__________________________________________________________________________________________________
Starting to train
Loading VGG model
Starting main train loop
Training on Batch 0
Discriminator Loss: 1.458572268486023  | Generator Loss: 0.6111414432525635
…
